office_home/office31_weight/seed2021/a2w/source_C.pt (torch, 33251 bytes, 3 tensors)

fc.bias f4 [31]
000000 be 69 1b 39 3d f4 d7 3b 63 54 dc bb 96 86 b5 bb
       0.00014821344 0.006590395 -0.006723927 -0.0055397255
000010 49 7f 8f bc 70 2b 1d bc e4 89 5e 3b 9d 43 0f 3b
       -0.017516749 -0.009592876 0.00339567 0.002186037
000020 cb 4d 23 3c f2 5b 21 bc 43 aa f7 3a 15 79 2b 3c
       0.009967278 -0.009848582 0.0018895346 0.01046588
000030 76 0d 53 3b 8f 84 7e 3b ff 23 47 b9 8b c8 78 3c
       0.0032204068 0.0038836335 -0.00018991528 0.015184532
000040 41 b2 dc 3b 97 7c d6 3b e1 70 b0 bc 55 b9 dd ba
       0.0067351167 0.006545614 -0.0215382 -0.0016916195
000050 96 38 16 3c 30 5c 62 bb ae d8 ab 3b 27 da 9d bb
       0.009168765 -0.0034539811 0.005244336 -0.0048172656
000060 3d f9 d5 3b 1d ae 31 ba 03 90 62 3b 5c b9 ec 3b
       0.0065299557 -0.0006777959 0.00345707 0.007224245
000070 ae 7e bd bb 96 40 c8 bb 81 cd 08 bc
       -0.0057829237 -0.006111215 -0.008349777

fc.weight_g f4 [31, 1]
000000 6d cc 17 3f b6 22 06 3f 7d 91 0a 3f 12 63 17 3f
       0.59296304 0.52396715 0.5412825 0.59135544
000010 97 05 1f 3f 44 d3 16 3f fb ca 14 3f 5d 40 0f 3f
       0.62117904 0.58916116 0.58122224 0.55957586
000020 a9 e0 16 3f 25 15 14 3f 9d 07 18 3f 65 f6 19 3f
       0.58936554 0.57844764 0.59386617 0.60141593
000030 99 a6 16 3f 18 c2 12 3f b6 9c 13 3f 6f 9c 16 3f
       0.5884796 0.57327414 0.57660997 0.5883245
000040 96 bb 16 3f b6 d2 0b 3f 33 40 1b 3f 01 c5 11 3f
       0.58879983 0.54618394 0.60644835 0.5694123
000050 07 b1 13 3f 4c 0d 0e 3f 4b dc 11 3f 1b f4 1d 3f
       0.57692 0.5548904 0.56976765 0.617006
000060 48 c8 1d 3f d4 61 1e 3f 4c 7f 17 3f aa c0 1e 3f
       0.6163373 0.61868024 0.59178615 0.6201273
000070 28 21 17 3f e2 f3 14 3f bf 68 1d 3f
       0.5903497 0.58184636 0.61487955

fc.weight_v f4 [31, 256]
000000 82 8f 83 bd 8d bd 19 3d d6 85 cc bc ee 9a e9 3b
       -0.06423856 0.037534285 -0.024966162 0.0071290648
000010 e1 88 2e bd 81 ef 5d bd fe e2 2b bd 6d ac 1a 3d
       -0.042611007 -0.054183487 -0.041964523 0.037762094
000020 99 ce 83 bb b2 7f a9 3c b7 4d 65 bc e7 e1 9f 3c
       -0.004022431 0.020690773 -0.013995579 0.019516898
000030 f1 29 38 3d a9 46 df bc 35 88 fe 37 ec 44 a1 bd
       0.044961873 -0.027255373 3.0342586e-05 -0.07874474
000040 79 74 4c bb e5 91 29 bc 99 f1 cb 3c 12 3c 8c bd
       -0.0031197353 -0.010349725 0.024895476 -0.06847395
000050 86 b1 5a bd c1 58 c4 bb c1 1b 33 bd f4 95 9f bc
       -0.053391956 -0.0059920256 -0.04372764 -0.019480683
000060 b2 50 67 bd 48 96 8e bd 42 d4 36 bc 14 25 a6 bc
       -0.05647344 -0.069622576 -0.011159005 -0.020281352
000070 4e 39 32 3d f8 14 95 3d 0e bb 8f bd 37 54 81 3d
       0.04351168 0.0727939 -0.070181 0.06314891
000080 2f 6f 79 3d 22 86 4a 3d 70 6e 85 bd 8d 1a 90 3d
       0.06089705 0.049444325 -0.06515205 0.07036314
000090 6c 4b 40 3d 3b 1a a3 3c 45 07 01 3d 1c 79 0e 3d
       0.046946928 0.019909969 0.031501073 0.034783468
0000a0 9d aa ef 3b f8 a7 e3 3c 06 e8 40 3d 60 81 d1 3c
       0.00731404 0.027790055 0.047096275 0.025574386
0000b0 2e 66 05 bd e5 5c 43 3d ca e9 63 bd 8e 31 19 3d
       -0.03256815 0.047696013 -0.05564288 0.037400775
0000c0 70 4a 4f bd f8 af 37 bd d9 b0 bb bc 14 9e c0 3c
       -0.0506081 -0.04484555 -0.022911476 0.023512878
0000d0 1a aa b8 3b ff e9 f7 bc b6 b3 14 bd 2b 9f 94 bb
       0.005635512 -0.030262945 -0.0363042 -0.004535576
0000e0 eb 72 6b bd a2 49 62 bd 51 f4 32 3d 3a df 2b bd
       -0.05748264 -0.055246003 0.04369003 -0.041960932
0000f0 5b 93 f9 3b 4c 09 d2 bb b8 6a b3 bc b9 f1 28 bc
       0.007616443 -0.0064097997 -0.021901473 -0.010311537
000100 2a 7d f8 3c 68 df 51 3d 45 46 22 bc 89 07 56 3d
       0.03033312 0.051238447 -0.009904449 0.05225328
000110 3d 14 0c bd 60 f9 88 ba 85 4c aa bc 25 8a 2b 3d
       -0.03419899 -0.0010450296 -0.02078844 0.04187979
000120 c9 bf bf bc 5a 10 02 bd 24 46 d8 3c 21 1a 81 3c
       -0.02340688 -0.031753875 0.026400633 0.01575953
000130 97 6d 2b 3d a7 ef 6e 3d e8 28 17 3b 72 a4 4f bd
       0.04185256 0.05833402 0.0023065154 -0.050693937
000140 49 15 02 3c b1 42 6c bd a1 bf 53 bd af 44 69 bd
       0.007939645 -0.05768079 -0.051696423 -0.056950267
000150 c5 9e 01 bd d7 73 d9 bc 6b 0d 40 bd a2 18 4b bd
       -0.031645555 -0.026544495 -0.046887796 -0.04958404
000160 c1 41 30 3d 11 01 93 bc 62 e5 a5 3c 73 a7 0a bd
       0.043031458 -0.017944844 0.02025098 -0.0338511
000170 83 6d 08 bc 25 25 99 ba d6 c4 0a bd ed 11 6b 3c
       -0.008326891 -0.0011684044 -0.033879124 0.014347536
000180 e5 68 1f 3c b5 87 2a 3c 00 b3 01 bc 50 54 eb 3c
       0.009729599 0.010408332 -0.007916212 0.028726727
000190 38 6f 9a bd 05 59 0c 3d fd ce 76 bc f9 9e 1e 39
       -0.075407445 0.034264583 -0.015063998 0.00015127276
0001a0 a1 a4 53 3d dd df 3d bc 27 54 01 3d 5c 06 23 3c
       0.051670674 -0.011589018 0.031574395 0.009950247
0001b0 62 10 5d bd af 46 33 3d 6f c1 03 bd b7 50 61 3d
       -0.053970702 0.04376858 -0.032166895 0.055008616
0001c0 57 3a ef bc 72 77 5b bd 0e 79 00 3d 84 fa 79 3c
       -0.029202623 -0.05358071 0.031365447 0.0152574815
0001d0 31 d8 02 bd 6e 6b 96 3d ab d9 aa 3c 68 02 0f 3d
       -0.031944457 0.07344709 0.020855745 0.034914404
0001e0 83 67 6d 3d ea 56 35 3d 48 28 66 bc 06 74 f1 3c
       0.057960045 0.04427234 -0.01404769 0.02947427
0001f0 73 a1 7c bd bf d6 b0 3c 03 91 88 3c 6e cd a7 bc
       -0.061677407 0.021586774 0.01667071 -0.020483699
000200 b5 12 72 bd ea 0e 85 3c ed 4c 15 bd a5 98 a1 3c
       -0.05909987 0.016242463 -0.036450315 0.019726107
000210 3f c9 87 3d 1a 9c a7 bb 3c aa 5a 3d d3 cc 2d bd
       0.066301815 -0.0051150443 0.053385004 -0.042431664
000220 3b 96 21 3d d1 0d 47 3d 93 99 32 bb 54 3c 61 3d
       0.03944991 0.04859716 -0.0027252182 0.054989174
000230 9f e2 df bc 7f 9a 17 3d 66 f0 64 3d 43 5f 38 3c
       -0.027329741 0.037012573 0.055893324 0.011253181
000240 4c 30 fd bb d0 c3 fd 3c dd be 24 bd 9a 9b 2e bd
       -0.0077267047 0.03097716 -0.040221084 -0.042628862
000250 a2 21 af 3c 63 e8 1e bd b9 ac f9 bc 26 a9 1d 3d
       0.021378342 -0.03879584 -0.030477868 0.03849139
000260 12 9f 9d 3c f1 68 04 b9 c1 8f 84 ba 34 6b 66 bd
       0.01924089 -0.00012627595 -0.0010113643 -0.05625458
000270 c5 ec da 3c 08 24 1e bd 5a ea 4b 3d 11 d6 25 3d
       0.026724229 -0.03860858 0.049784042 0.040487353
000280 2b 91 49 3d 04 e0 a3 bc f7 9e b5 3c 7b ae b3 bc
       0.04921071 -0.02000428 0.022170527 -0.021933785
000290 04 44 7d bd fa fe 00 3d fa 69 64 3d 60 93 ff 3c
       -0.061832443 0.031493165 0.05576513 0.031198204
0002a0 1a 2c 45 3d a7 a5 72 bc 7a 1a 3b 3d 0d a4 dd bc
       0.04813776 -0.014810002 0.045679547 -0.027055765
0002b0 d4 75 82 3b 4c 0a 47 3d 09 86 4c bd d1 26 ff bc
       0.0039813314 0.048593804 -0.049932513 -0.031146439
0002c0 bf e2 5f 3d 4e 4c 22 3d 9d c8 3f bd f2 13 2c 3c
       0.0546596 0.03962355 -0.04682218 0.010502802
0002d0 d5 f6 93 bc 5e ed 4c 3c 21 c8 34 3d 69 16 b9 3b
       -0.018062035 0.012507765 0.04413617 0.0056484235
0002e0 bc 7c 46 3d 02 0c 9d bc bc b5 b0 bc 53 b9 4d bd
       0.0484588 -0.019170765 -0.021571033 -0.050225567
0002f0 0f 66 09 bd cf bc 31 3d 2d 2f 86 3d 0a 54 ab 3c
       -0.033544596 0.043392953 0.06551967 0.020914096
000300 37 c2 50 bd fd b0 75 3d dc 46 14 bc 1f e2 18 3d
       -0.050966468 0.059983242 -0.009050097 0.03732502
000310 4b 15 f1 3c 4b 8b 21 3b c8 16 d3 3c 37 0c d1 bc
       0.029429099 0.0024649675 0.025767699 -0.02551852
000320 f0 49 45 3d 31 c0 a4 bc 14 95 04 bd 21 d5 01 bd
       0.048166215 -0.020111175 -0.032368734 -0.031697396
000330 78 7c 0b bc 0e 3a 1e 3d 7a 86 e5 3c 0a 13 1e bd
       -0.008513562 0.038629584 0.028018225 -0.038592376
000340 0f 04 1c 3c a5 32 dd bc 0e da 6d bd 3a b8 51 3d
       0.009522452 -0.027001688 -0.05806928 0.051201083
000350 ea 81 25 bd 84 f7 5d bd fe 3d 4d 3d df ca 0e 3d
       -0.0404071 -0.054191127 0.05010795 0.03486144
000360 8e 74 f3 3c 44 2a ea 3c 0f 95 5d bc c8 4a 59 bd
       0.029718664 0.028584607 -0.013524308 -0.053049833
000370 9f e9 f3 bc 8d 6d 59 bd c2 a9 12 bd 78 d1 97 bd
       -0.029774485 -0.05308299 -0.035806425 -0.07413
000380 63 30 cf bc 7e 94 92 bc 63 be de 3c 41 bc 83 3d
       -0.025291627 -0.017893072 0.027190393 0.06432391
000390 32 89 03 3d 12 bd 57 3c 17 c3 20 3d 34 91 f3 3a
       0.03211326 0.0131676365 0.039248552 0.0018582703
0003a0 ba c0 75 3c 77 3b b1 bc 2c 42 69 3d 55 a1 19 3d
       0.014999563 -0.0216348 0.056947872 0.037507374
0003b0 cd 93 56 3d 99 6e d3 bb 7d fc f0 bc 8a 05 e7 3c
       0.052387048 -0.0064523933 -0.02941727 0.028200883
0003c0 a7 f9 11 bc 52 f6 7d bc 50 c4 56 3d e3 03 21 3d
       -0.008909619 -0.015500622 0.052433312 0.039310347
0003d0 f9 51 04 3d 1a ed 14 3d f7 c0 15 3d c1 c7 1a 3d
       0.032304738 0.03635893 0.03656098 0.037788156
0003e0 9f 3d c1 bc 6e f7 47 3d de 71 78 3d 20 f4 26 3d
       -0.023588954 0.04881995 0.060655467 0.04076016
0003f0 fe f3 64 3d 93 6c a4 bc 00 53 69 3d 42 ec 25 bd
       0.05589675 -0.020071303 0.05696392 -0.040508516
