office_home/office31_weight/seed2021/d2a/source_C.pt (torch, 33251 bytes, 3 tensors)

fc.bias f4 [31]
-0.0074939905 0.0043205777 0.00567949 -0.0024622506 -0.0017156878 -0.0079310015 -0.0014569735 -0.0032129188
0.003940607 0.00039773944 0.0029452818 -0.004459895 0.006051157 0.0027854932 0.007989515 0.0026724725
-0.0033867876 -0.005793531 -0.0065110065 -0.0070493408 0.0003451237 -0.0019362409 0.0046460545 0.0011860036
-0.004226009 -0.00641184 0.00083420874 0.012814997 0.0061298436 0.0037745296 -0.0024653256
00000000: 2690 f5bb a293 8d3b 041b ba3b b65d 21bb
00000010: eee0 e0ba 08f1 01bc ebf7 beba d58f 52bb
00000020: 3520 813b af87 d039 a105 413b 5024 92bb
00000030: c948 c63b d28c 363b 74e6 023c a624 2f3b
00000040: def4 5dbb a9d7 bdbb 485a d5bb 28fe e6bb
00000050: b8f1 b439 77c9 fdba ee3d 983b ad73 9b3a
00000060: 557a 8abb 6a1a d2bb cdae 5a3a fef5 513c
00000070: dbdc c83b 195e 773b 4d91 21bb

fc.weight_g f4 [31, 1]
0.58422124 0.5187922 0.52371716 0.56119853 0.53230256 0.5398459 0.50631034 0.5098772
0.5673666 0.542369 0.5634053 0.53663963 0.5475652 0.53073794 0.5533864 0.5350985
0.584172 0.5470948 0.5277993 0.5671761 0.5523075 0.5757348 0.49464074 0.53304344
0.5715807 0.54735446 0.5311322 0.52883863 0.5618184 0.5632429 0.5133177
00000000: 868f 153f 91cf 043f 5412 063f b5aa 0f3f
00000010: fb44 083f 5733 0a3f 8e9d 013f 5087 023f
00000020: f03e 113f b2d8 0a3f 543b 103f 3761 093f
00000030: 3c2d 0c3f 71de 073f bbaa 0d3f 37fc 083f
00000040: 4c8c 153f 680e 0c3f db1d 073f 7432 113f
00000050: 0664 0d3f 5b63 133f 8d41 fd3e 8975 083f
00000060: 1d53 123f 6c1f 0c3f 48f8 073f f861 073f
00000070: 55d3 0f3f b030 103f ca68 033f

fc.weight_v f4 [31, 256]
-0.05530401 0.051219873 -0.0058178343 -0.007465257 -0.032793984 -0.05093048 -0.05859231 0.045980323
-0.008956892 0.02154104 -0.013253034 0.013410539 0.050162606 -0.037280954 0.0034747878 -0.0693274
0.003519495 -0.012848522 0.02977451 -0.05430866 -0.05431453 -0.020207206 -0.04933063 -0.0001659587
-0.05111712 -0.070697844 -0.027887022 -0.027873235 0.049373504 0.070851006 -0.05092941 0.032762505
0.059808355 0.050735116 -0.065506116 0.05867597 0.04346693 0.030291457 0.018336745 0.053787246
0.019542197 0.013673601 0.045838382 0.030758718 -0.035260495 0.034250986 -0.060297154 0.036224637
-0.050882727 -0.040110435 -0.006423989 0.023205977 0.024192903 -0.032928966 -0.022076376 -0.023430683
-0.06355615 -0.048033826 0.055769566 -0.046185695 0.03533217 -0.014788263 -0.014584319 0.0042058793
0.02262991 0.05931408 0.002318708 0.049693704 -0.043425072 -0.00075892545 -0.011784287 0.052604888
-0.020506186 -0.035088204 0.038589656 0.012325263 0.030920716 0.056014307 0.00078171806 -0.048958596
0.008921527 -0.05529089 -0.05250647 -0.057425436 -0.029483523 -0.032879528 -0.05392799 -0.061180085
0.046522588 -0.025902389 0.035453677 -0.035966396 -0.014602874 0.0020016616 -0.008772401 -0.00046284674
0.013311498 0.003796407 -0.028105494 0.020842535 -0.07023891 0.025701514 -0.018483523 0.004163344
0.03686423 -0.0013610594 0.031903356 0.018918572 -0.06200005 0.039010365 -0.022012874 0.07139196
-0.04113003 -0.054858442 0.042135447 0.014152526 -0.05365143 0.0757163 0.046521913 0.030578034
0.0518428 0.027045859 -0.024285972 0.039465483 -0.049119387 0.037977222 0.016253948 -0.028904306
-0.059241157 0.027520025 -0.024859063 0.033855975 0.0702255 -0.0045766896 0.048754256 -0.05720804
0.044361938 0.06468189 0.0030707568 0.05216083 -0.02557866 0.036797952 0.049583685 0.0070128865
-0.015135599 0.033281147 -0.03775251 -0.051380523 0.01854302 -0.031780384 -0.023483831 0.022717621
0.021154884 -0.0069251168 0.018379884 -0.06250266 0.028364794 -0.028341623 0.03394119 0.060904443
0.04536626 -0.022539394 0.03221047 -0.02026869 -0.054177813 0.044352822 0.04936899 0.015406049
0.048237797 -0.029454486 0.052825842 -0.0161663 0.015047213 0.058792967 -0.042408064 -0.03558552
0.052447617 0.038064435 -0.055197675 0.012228636 -0.009105816 0.0012368999 0.057898365 0.029769111
0.054122142 -0.017995456 -0.023083374 -0.055308804 -0.04492448 0.06331909 0.059539173 0.02195454
-0.045503166 0.051400576 -0.012729307 0.034604903 0.03274048 0.008049363 0.021373877 -0.036892526
0.049826644 0.0012992048 -0.015546051 -0.04203288 -0.014112562 0.052818183 0.016233306 -0.037818354
0.004404347 -0.040620968 -0.062298346 0.05564214 -0.033629168 -0.040087752 0.043046046 0.03003372
0.031216752 0.015727405 -0.013486775 -0.054078016 -0.009290905 -0.05218846 -0.038666535 -0.06706725
-0.039751485 -0.019201947 0.022090917 0.06158043 0.04346486 0.013769093 0.043591376 0.010272824
0.0063915276 -0.013482947 0.06268287 0.031755492 0.06302524 -0.010384243 -0.040018495 0.029676545
-0.0015635131 -0.022421308 0.05201237 0.044557992 0.04235908 0.034387358 0.052725464 0.030132117
-0.029407613 0.012060018 0.046592772 0.04487306 0.035014365 -0.022421481 0.07279312 -0.047338035
00000000: 7586 62bd eecb 513d 88a3 bebb 1d9f f4bb
00000010: fc52 06bd 7b9c 50bd 7dfe 6fbd dd55 3c3d
00000020: eebf 12bc d676 b03c 4123 59bc e1b7 5b3c
00000030: 4e77 4d3d eab3 18bd 44b9 633b 86fb 8dbd
00000040: 54a7 663b 9b82 52bc ace9 f33c c272 5ebd
00000050: ea78 5ebd 9589 a5bc ea0e 4abd 3305 2eb9
00000060: 2f60 51bd 08ca 90bd 5373 e4bc 6956 e4bc
00000070: df3b 4a3d 551a 913d 5b9b 50bd fa31 063d
00000080: 9bf9 743d a0cf 4f3d 1228 86bd 3756 703d
00000090: 610a 323d ca25 f83c f136 963c 0450 5c3d
000000a0: f516 a03c 3d07 603c 07c1 3b3d b5f9 fb3c
000000b0: 4f6d 10bd c34a 0c3d 26fa 76bd 4960 143d
000000c0: 686a 50bd d74a 24bd 5380 d2bb 761a be3c
000000d0: 3230 c63c 86e0 06bd 84d9 b4bc b4f1 bfbc
000000e0: ba29 82bd 1ebf 44bd a16e 643d 362d 3dbd
000000f0: 77b8 103d 784a 72bc 11f3 6ebc 79d1 893b
00000100: 5c62 b93c 52f3 723d 77f5 173b a08b 4b3d
00000110: 7dde 31bd a0f2 46ba e212 41bc 3978 573d
00000120: 97fc a7bc a6b8 0fbd 3010 1e3d e6ef 493c
00000130: 714d fd3c 426f 653d 36ec 4c3a cf88 48bd
00000140: 992b 123c b378 62bd 0611 57bd ef36 6bbd
00000150: 6e87 f1bc afac 06bd 99e3 5cbd f897 7abd
00000160: 788e 3e3d 3f31 d4bc e037 113d 8051 13bd
00000170: e540 6fbc 4f2e 033b 1eba 0fbc 3daa f2b9
00000180: 7818 5a3c 24cd 783b 7e3d e6bc f7bd aa3c
00000190: 6bd9 8fbd fb8b d23c c26a 97bc a96c 883b
000001a0: f2fe 163d 9365 b2ba 18ad 023d 1ffb 9a3c
000001b0: c4f3 7dbd 55c9 1f3d 5854 b4bc f335 923d
000001c0: f677 28bd 3fb3 60bd 3896 2c3d ffdf 673c
000001d0: 9ac1 5bbd 2611 9b3d c38d 3e3d c97e fa3c
000001e0: 1e59 543d 478f dd3c 60f3 c6bc 8fa6 213d
000001f0: 6931 49bd 018e 1b3d 0027 853c b9c8 ecbc
00000200: dba6 72bd ad71 e13c 3ca5 cbbc 90ac 0a3d
00000210: 63d2 8f3d 0ef8 95bb 8bb2 473d fa52 6abd
00000220: ddb4 353d f077 843d c03e 493b 98a6 553d
00000230: 578a d1bc 73b9 163d 4318 4b3d 5bcc e53b
00000240: 4efb 77bc d051 083d 60a2 1abd 6274 52bd
00000250: 88e7 973c 262c 02bd 2a61 c0bc 4e1a ba3c
00000260: 024d ad3c 17ec e2bb 6991 963c 6501 80bd
00000270: 495d e83c b12c e8bc eb05 0b3d f076 793d
00000280: f9d1 393d 89a4 b8bc 20ef 033d 860a a6bc
00000290: 8ee9 5dbd 4eab 353d 2337 4a3d a769 7c3c
000002a0: ff94 453d 894a f1bc e95f 583d 306f 84bc
000002b0: 9688 763c e5d0 703d 14b4 2dbd 1fc2 11bd
000002c0: 50d3 563d 74e9 1b3d f516 62bd 9e5a 483c
000002d0: 8f30 15bc 791f a23a d626 6d3d 5ade f33c
000002e0: 2eaf 5d3d 356b 93bc 5819 bdbc 7c8b 62bd
000002f0: bb02 38bd 70ad 813d 59df 733d 02da b33c
00000300: 8761 3abd 6989 523d 958e 50bc dfbd 0d3d
00000310: e21a 063d 7ae1 033c 4518 af3c 9e1c 17bd
00000320: 0617 4c3d 144a aa3a ddb4 7ebc ab2a 2cbd
00000330: 6038 67bc e157 583d b6fb 843c 6be7 1abd
00000340: 5752 903b 2c62 26bd 8d2c 7fbd 03e9 633d
00000350: bdbe 09bd 0e33 24bd 0d51 303d 4709 f63c
00000360: 46ba ff3c c2d6 803c a2f7 5cbc e980 5dbd
00000370: e138 18bc 91c3 55bd cd60 1ebd 8e5a 89bd
00000380: 74d2 22bd 674d 9dbc 03f8 b43c c33b 7c3d
00000390: 3608 323d c397 613c df8c 323d 594f 283c
000003a0: 0570 d13b 94e7 5cbc e05f 803d 0c12 023d
000003b0: 6113 813d ac22 2abc 6fea 23bd 3a1c f33c
000003c0: cbee ccba e4ac b7bc ec0a 553d 7182 363d
000003d0: b780 2d3d c2d9 0c3d a8f6 573d a1d7 f63c
000003e0: 3ce8 f0bc 6297 453c 10d8 3e3d d0cc 373d
000003f0: 396b 0f3d 41ad b7bc 8f14 953d 87e5 41bd
