office_home/office31_weight/seed2021/w2d/source_C.pt (torch, 33251 bytes, 3 tensors)

fc.bias f4 [31]
00000000: bc5e 85ba 5b04 02bb c4a1 773b 01d9 d1bb
00000010: 36e6 e7bb d863 71bb 0efd 523c 4bfb c6bb
00000020: 5e71 28bb d437 f3b9 8cee 9f3b 99ca b33b
00000030: 4d89 8e3b c721 a4bb e1aa 89bb 5280 593c
00000040: 2cf5 973b 9efc 07ba 693b 8eb9 1b72 e53a
00000050: 2cbe aaba a767 d7bb b45f b43b 8af8 153b
00000060: ff98 d73b 1e72 12bc ca51 2dbb 4e2c bd3b
00000070: 06d7 8bbb 3e9c f0bb 890e 5cba
-0.0010175328 -0.0019839022 0.0037785629 -0.0064040427 -0.007077004 -0.0036833193 0.012877716 -0.006072437
-0.0025702338 -0.00046390167 0.004880732 0.005486798 0.0043498636 -0.0050089094 -0.0042012786 0.013275223
0.004637381 -0.0005187484 -0.00027128615 0.001750532 -0.0013026646 -0.0065736356 0.0055045728 0.0022883737
0.006579518 -0.0089383405 -0.0026446455 0.005773104 -0.004267576 -0.0073428443 -0.00083945

fc.weight_g f4 [31, 1]
00000000: 8558 153f 4390 063f d78f 063f eaaa 0d3f
00000010: 1507 103f 0ac4 0b3f 2ccf fb3e 1bcd 053f
00000020: ec1a 0f3f e9d5 0e3f 8723 0a3f 7cf7 043f
00000030: 0f4b 113f 6d71 0d3f 9b5c 0e3f f473 093f
00000040: 09d1 0f3f 6876 0a3f 6b59 0c3f 3e32 033f
00000050: fc97 103f eb35 143f 93ee 043f 372d 0c3f
00000060: 696a 0a3f 194b 0d3f daf9 083f b945 083f
00000070: 5483 133f 1b6c 093f 4cdc 063f
0.58338195 0.52563876 0.5256323 0.5533892 0.56260806 0.54596007 0.49181497 0.5226609
0.55900455 0.5579515 0.5396046 0.5194013 0.56755155 0.552512 0.55610055 0.53692555
0.5617834 0.54086924 0.5482394 0.5124854 0.5648191 0.5789477 0.51926535 0.5475649
0.5406862 0.55192715 0.53506243 0.5323139 0.57622266 0.5368058 0.52679896

fc.weight_v f4 [31, 256]
00000000: abd2 4abd 7596 533d 3a9e 57bc 4d41 16bc
00000010: 7b2e dbbc 686b 46bd 5f99 72bd 0ffc 3b3d
00000020: 398c 67bc 1be0 9f3c b96d 8dbc 79f3 153c
00000030: e886 473d 8674 b8bc b7c0 103c 2fe7 9cbd
00000040: 56ad 403c 65b1 26bc d9a2 1d3d 78bb 4abd
00000050: 44f8 64bd f3de 8ebc f438 2abd 8fef d1bb
00000060: 862c 63bd 616a 89bd 8892 b3bc 1b86 cabc
00000070: 1b4f 483d f770 903d e940 7ebd 65b6 0e3d
00000080: 5880 7c3d 33f1 653d 4d87 4ebd f442 693d
00000090: e529 3d3d 8280 0b3d ba3f 643c 3ca6 403d
000000a0: 56ec 983c 3e18 a73c ec56 5b3d d04d ec3c
000000b0: d59b 0ebd 736c 0f3d 8a11 7abd 8190 083d
000000c0: 3e9d 3cbd c4d8 3dbd d7cd edbb c438 dd3c
000000d0: 42fe d23c 2838 c2bc 05a8 6bbc e58b b5bc
000000e0: c1f4 87bd 157d 28bd c85c 733d 1d3a 65bd
000000f0: 1845 f13c 53d9 2fbc 3455 97bc 1dd9 2d3c
00000100: c91f 973c cb63 853d 6b24 c93b f902 5c3d
00000110: ba10 19bd 5f0b 66b9 4115 5ebc 2262 293d
00000120: b9a6 43bc 2a05 1fbd 286b 2f3d feef 6a3c
00000130: 53e8 003d 9ca1 5b3d 07e0 b03b 49ef 38bd
00000140: 5668 133c 33ae 81bd 9d25 52bd dfb6 76bd
00000150: 3300 f5bc f594 17bd 3354 42bd 7b7e 61bd
00000160: ffe3 4f3d a1ff d1bc fc69 2f3d 98e6 1abd
00000170: 98b0 d5bc 04a4 b33b f4f5 29bc 77d5 dc3b
00000180: 5547 633c 2d21 db3b 5cea e7bc db6b c33c
00000190: be8b 94bd 4008 b43c 1a99 99bc 2172 fd3b
000001a0: 9d5e 193d 549b 4fba 0e55 ad3c 965a 8e3c
000001b0: 5b63 6dbd c6cc 533d fd86 89bc 2b83 9c3d
000001c0: 983c 25bd 9b75 84bd ccd2 233d 9aa6 923c
000001d0: 2c9e 31bd 5cf9 973d 571d 313d fb79 fb3c
000001e0: e56d 623d 6a0c b03c 219a 94bc 4a7b 1d3d
000001f0: 0e41 63bd e97c 083d 8d6c 893c 1f54 9dbc
00000200: f91b 8bbd 2605 083d edd7 babc 5abd 103d
00000210: 602e 893d fba4 11bc 31b8 743d d93a 83bd
00000220: 9015 2b3d 9088 6b3d 01d1 023c d3ac 753d
00000230: 4367 dabc fff0 083d 68b3 423d 1c95 f73b
00000240: bc56 6dbc c4c8 203d 5fa6 25bd 155d 27bd
00000250: 6bbd 823c 425a d0bc 9c22 f4bc daaf a93c
00000260: 0c81 eb3c 23a8 22bc 6e6b 563c d3fa 7ebd
00000270: 41de 1d3d f5d5 23bd c2d7 ef3c c9da 813d
00000280: e764 243d e74c abbc c908 143d a35f 59bc
00000290: ae42 50bd e89d 3a3d b9ee 603d 041e 813c
000002a0: 028c 3b3d f6e2 bfbc ff51 343d da32 8cbc
000002b0: 9576 d53c fda6 633d 0fc5 23bd 96d4 e0bc
000002c0: 0703 683d 5d7f 2a3d b03b 57bd 9335 823c
000002d0: b59d 38bc 0bd2 e0ba 99a1 533d 5f4f 113d
000002e0: 6a41 683d a023 b5bc 7b10 b4bc b5e7 5bbd
000002f0: 71bd 31bd 3755 733d fe49 683d 3d05 8f3c
00000300: 4d7d 49bd 32ec 543d 4a27 4cbb cb3d 1f3d
00000310: 7c18 243d 29db 3aba 2fc4 6d3c 8a54 0bbd
00000320: 9448 653d 2377 10bb 4da2 03bc 10fc 0cbd
00000330: f924 f8bb 2e31 453d 4330 bd3c 0c6f 20bd
00000340: 555a 0c3c be56 27bd 9e91 8dbd c849 5e3d
00000350: 137f 21bd d4b2 25bd 5f82 1d3d b3f3 033d
00000360: 18d1 173d 463a 7a3c 540c 6cbc d4e9 4cbd
00000370: ab46 45bc c5bd 56bd d4b5 ccbc 1c71 77bd
00000380: b4d7 0abd 7c5d 7fbc 1abe 843c f1b0 8e3d
00000390: 6982 1e3d c0bd 063c 448c 483d 6258 6b3c
000003a0: 28e2 f43b 29a2 2ebc 3f98 833d ab96 083d
000003b0: 693d 783d 67a3 20bc de9b 17bd 8dc5 e53c
000003c0: ec76 cdbb 972d ccbc 8c8b 6e3d 4b3c 253d
000003d0: 27da 443d ec31 053d 0db8 4c3d a793 b23c
000003e0: 9363 0abd e677 933c 3d66 583d 52cd fe3c
000003f0: 5eb0 f03c 21bb d1bc 4f13 913d 0533 4dbd
-0.049517315 0.05165716 -0.013160283 -0.009170842 -0.026755562 -0.048442274 -0.059228297 0.04589468
-0.014132553 0.019516042 -0.017264234 0.009152287 0.04871264 -0.0225165 0.008835009 -0.07661282
0.0117600765 -0.01017413 0.03848538 -0.04949519 -0.055900827 -0.017440295 -0.04155822 -0.0064067314
-0.055462383 -0.06709743 -0.021920457 -0.02472215 0.048903566 0.07052796 -0.062073622 0.034841914
0.061645836 0.05613823 -0.050422 0.056948617 0.046182532 0.0340581 0.013931209 0.047033533
0.018667381 0.020397302 0.053549692 0.028845698 -0.03481658 0.035015535 -0.061051883 0.033340935
-0.046048395 -0.046349302 -0.007257204 0.027004607 0.025756005 -0.023708418 -0.014383321 -0.022161433
-0.0663848 -0.041134913 0.059414655 -0.055963624 0.029451892 -0.0107329665 -0.018473245 0.010610846
0.018447774 0.065131746 0.0061383746 0.053713772 -0.037369467 -0.00021938745 -0.013554872 0.041353352
-0.011941605 -0.038823284 0.0428268 0.014339445 0.03147156 0.05362092 0.0053978 -0.045150075
0.008997044 -0.06332054 -0.051305402 -0.060232993 -0.029907322 -0.03700729 -0.04744358 -0.05505226
0.050754543 -0.025634589 0.042825684 -0.037817568 -0.026085183 0.0054821987 -0.010373581 0.006739314
0.013871987 0.0066873045 -0.028309993 0.02385514 -0.07253216 0.02197659 -0.018749762 0.0077345525
0.037443746 -0.0007919569 0.021158721 0.01737718 -0.05795608 0.05170896 -0.016788 0.07642206
-0.04034099 -0.06467744 0.039995953 0.017901707 -0.043363735 0.074206084 0.04324087 0.030697813
0.055280585 0.021490294 -0.0181399 0.038447656 -0.055481963 0.03332225 0.016775394 -0.019205151
-0.06792445 0.033208035 -0.02280804 0.03533683 0.066982985 -0.008889432 0.05974597 -0.06407709
0.04176861 0.057503283 0.007984401 0.05997927 -0.026660567 0.033432957 0.047534376 0.007555617
-0.014486011 0.039253965 -0.040441867 -0.040860254 0.015959462 -0.025433663 -0.02980166 0.020713735
0.028748058 -0.009927782 0.013087137 -0.062250923 0.038542036 -0.039998967 0.029277686 0.06340558
0.04013529 -0.020910693 0.03614119 -0.0132674305 -0.05084484 0.045560747 0.054915164 0.015761383
0.04578782 -0.023423653 0.04402351 -0.017114092 0.02605752 0.055579174 -0.03998285 -0.027445119
0.056643512 0.04162537 -0.052547157 0.015894687 -0.011268069 -0.0017152441 0.051667783 0.035476085
0.05670301 -0.022111714 -0.021980515 -0.05368777 -0.043393556 0.05940744 0.05671119 0.017458552
-0.04919176 0.051983066 -0.0031151348 0.03887729 0.040062413 -0.00071279943 0.014512106 -0.03401617
0.05597742 -0.0022043667 -0.008034301 -0.034420073 -0.007572767 0.048142605 0.023094302 -0.039168403
0.008566459 -0.04085421 -0.0691254 0.054269582 -0.039427828 -0.040453747 0.03845441 0.03221483
0.03706464 0.0152726825 -0.014407236 -0.050027683 -0.012040774 -0.052427072 -0.024989046 -0.060410604
-0.033897117 -0.015586253 0.016203929 0.06967343 0.038698588 0.008223951 0.048961893 0.014364334
0.007473249 -0.010658779 0.06425523 0.033346813 0.06060544 -0.009804583 -0.03701388 0.028048301
-0.00627028 -0.024924083 0.05823855 0.040340703 0.04805961 0.032518312 0.049980212 0.021798922
-0.033786368 0.018001508 0.052831877 0.031103764 0.029380973 -0.025601925 0.07083761 -0.050097484
